…
e_uri":"https://localhost:8080/"},"executionInfo":{"elapsed":2344,"status":"ok","timestamp":1679518750706,"user":{"displayName":"Muhammad Fadhil Al Hafiz","userId":"08954005111788787553"},"user_tz":-420},"id":"wSJWnBz2QprE","outputId":"ef1b4c07-d9b5-4577-90dc-bd65c67fa034"},"outputs":[{"output_type":"stream","name":"stdout","text":["Model: \"sequential\"\n","_________________________________________________________________\n"," Layer (type)                Output Shape              Param #   \n","=================================================================\n"," embedding (Embedding)       (None, 256, 200)          3237000   \n","                                                                 \n"," bidirectional (Bidirectiona  (None, 256, 64)          59648     \n"," l)                                                              \n","                                                                 \n"," bidirectional_1 (Bidirectio  (None, 64)               24832     \n"," nal)                                                            \n","                                                                 \n"," dropout (Dropout)           (None, 64)                0         \n","                                                                 \n"," dense (Dense)               (None, 256)               16640     \n","                                                                 \n"," dropout_1 (Dropout)         (None, 256)               0         \n","                                                                 \n"," dense_1 (Dense)             (None, 128)               32896     \n","                                                                 \n"," dropout_2 (Dropout)         (None, 128)               0         \n","                                                                 \n"," dense_2 (Dense)             (None, 32)                4128      \n","                                                                 \n"," dropout_3 (Dropout)         (None, 32)                0         \n","                                                                 \n"," dense_3 (Dense)             (None, 6)                 198       \n","                                                                 \n","=================================================================\n","Total params: 3,375,342\n","Trainable params: 3,375,342\n","Non-trainable params: 0\n","_________________________________________________________________\n"]}],"source":["# Membangun arsitektur dari model.\n","# Memanfaatkan Bidirectional LSTM, aga
…
